pcz_9.pth (torch, 587207 bytes, 10 tensors)

weight f4 [32, 3, 5, 5]
-0.024916193 0.10033078 0.011133044 -0.012106781 -0.099398576 0.05135223 -0.020501338 -0.02507183
0.020359682 -0.119029485 -0.14115013 0.01359239 -0.15931055 -0.08850389 0.012297555 -0.076471865
-0.06040335 0.10138347 -0.013499245 0.11293791 0.055170715 0.053710014 0.03986029 0.002635459
0.005991138 -0.06660869 0.019953858 -0.08573965 0.08126039 -0.040150713 -0.09004721 -0.04673616
-0.08886612 -0.047855854 -0.09362667 -0.0065794163 -0.09924687 -0.0037696988 -0.15155326 0.035854876
-0.0452941 -0.12515557 -0.11104779 -0.028768282 0.04644407 -0.11953493 -0.08862193 0.014725677
0.0957651 0.07811391 0.12595439 0.13073832 0.15829132 0.03298365 0.16885999 0.15354411
-0.03378674 -0.008760419 0.063348174 0.111705735 0.060110237 -0.11229538 0.09583611 -0.020859253
-0.08117238 0.09377124 0.02789023 -0.08737844 -0.10335589 0.028901536 0.05707914 0.059868135
-0.04078657 0.013220341 0.06378826 0.0434651 0.05922063 -0.06458907 -0.12146514 -0.0021604735
-0.0820609 -0.02371004 -0.11490504 -0.046751756 -0.15751022 0.096175276 0.068314694 0.100559846
-0.012190445 -0.030007863 0.011391222 0.16121927 0.13698526 0.10039561 -0.03321795 -0.037279088
-0.007890999 -0.002813732 0.12443408 -0.069373034 -0.04358496 0.08678781 -0.104468316 0.1252349
0.0112110935 0.012919473 -0.00892963 0.08264744 0.018792028 -0.08399038 0.09049074 0.110722184
0.09896219 -0.04435753 0.11009347 0.030962143 0.11557471 -0.0008234291 -0.037014015 0.11232327
-0.037143536 -0.09980838 0.07208678 0.11080061 -0.0008832094 -9.637122e-05 -0.0015354522 -0.14248197
-0.0015748347 0.10735921 -0.0761247 -0.07703552 -0.06238712 0.09134037 -0.048973914 0.016310347
-0.060167793 -0.04982925 -0.04168247 -0.06949308 0.02698109 0.108003356 -0.0031752437 0.052626166
0.1024206 -0.15256393 -0.092163496 0.0011966026 -0.10684333 -0.029025272 -0.048812464 -0.084433146
-0.010061907 -0.062505126 0.07702389 0.1321005 0.1042143 0.06730566 0.12862618 0.14072032
0.13615023 -0.0007792451 0.10334743 -0.04754066 0.050493512 0.04424345 0.11979437 -0.114389576
-0.078040816 0.011284183 0.084349535 -0.034648 -0.074134685 -0.033764977 -0.08006825 -0.06610542
0.10031226 0.0058104773 -0.13731867 0.025820572 0.066945195 0.10176953 0.08740874 -0.079299115
0.003513026 -0.08696406 -0.00266034 -0.06394389 -0.13008481 0.06010466 0.00916101 0.07974402
0.013676994 -0.014098367 -0.12927195 0.0052971486 -0.057223562 -0.14332682 -0.1128699 -0.08010792
-0.023239974 -0.0070196227 -0.086984426 -0.041097634 -0.10855106 0.06474801 0.12059171 -0.048580002
0.033223435 -0.072835095 0.013053161 0.058356356 0.03695419 -0.0060509937 0.075589284 0.096405245
0.093974 0.07195588 -0.08950712 -0.08917222 0.13953485 0.060048047 -0.10651144 -0.077785894
0.056724686 -0.03589658 0.10108745 0.07592626 0.07495522 0.11553778 0.023579014 0.063943505
0.099502504 0.07301207 0.08137812 0.044394724 -0.04391584 0.037322342 0.15517686 -0.027791785
0.12776902 0.1199373 0.14502671 0.05947562 0.04325131 0.11493796 0.17499496 -0.04567631
0.0019141934 0.12322392 -0.13760175 -0.09705442 -0.12249954 -0.037327237 -0.1046508 -0.03898351
00000000: 0b1d ccbc 397a cd3d 5f67 363c 855b 46bc
00000010: 7b91 cbbd b756 523d 6cf2 a7bc 7063 cdbc
00000020: 59c9 a63c bbc5 f3bd a989 10be 9eb2 5e3c
00000030: 4e22 23be 8741 b5bd af7b 493c 489d 9cbd
00000040: 8169 77bd 23a2 cf3d f02b 5dbc fe4b e73d
00000050: b0fa 613d 08ff 5b3d 8b44 233d aab7 2c3b
00000060: 4f51 c43b 236a 88bd 4676 a33c 4598 afbd
00000070: d96b a63d 1375 24bd ac6a b8bd 6a6e 3fbd
00000080: 71ff b5bd 8004 44bd 57bf bfbd 2598 d7bb
00000090: f141 cbbd 0d0d 77bb c730 1bbe 90dc 123d
000000a0: 4e86 39bd c828 00be 066d e3bd 76ab ebbc
000000b0: 233c 3e3d bbce f4bd 6a7f b5bd f743 713c
000000c0: 7e20 c43d 30fa 9f3d 30fa 003e 44e0 053e
000000d0: 1f17 223e dd19 073d a2e9 2c3e ab3a 1d3e
000000e0: f763 0abd dc87 0fbc b0bc 813d fac5 e43d
000000f0: 2736 763d 1ffb e5bd b945 c43d 06e1 aabc
00000100: b43d a6bd 230b c03d 0d7a e43c 78f3 b2bd
00000110: 41ac d3bd eac2 ec3c d1cb 693d 4a38 753d
00000120: d20f 27bd 219a 583c 6ba3 823d 7608 323d
00000130: 5591 723d 4647 84bd b7c2 f8bd bb96 0dbb
00000140: 8c0f a8bd 8f3b c2bc 5553 ebbd c57e 3fbd
00000150: 5c4a 21be 8bf7 c43d 93e8 8b3d 52f2 cd3d
00000160: 6fba 47bc 0dd3 f5bc 3fa2 3a3c aa16 253e
00000170: dd45 0c3e 379c cd3d 8c0f 08bd f5b1 18bd
00000180: 4049 01bc 9766 38bb 4cd7 fe3d 7313 8ebd
00000190: 2586 32bd cfbd b13d 7cf3 d5bd 943d 003e
000001a0: bcae 373c 33ac 533c 954d 12bc 1043 a93d
000001b0: bdf1 993c 2603 acbd 3653 b93d 50c2 e23d
000001c0: b0ac ca3d 3eb0 35bd af78 e13d 52a4 fd3c
000001d0: 6fb2 ec3d 64db 57ba 029c 17bd be09 e63d
000001e0: d223 18bd 5668 ccbd 3ca2 933d 6eeb e23d
000001f0: 2e87 67ba e81a cab8 3a41 c9ba cbe6 11be
00000200: af6a ceba 25df db3d 44e7 9bbd ccc4 9dbd
00000210: a389 7fbd a910 bb3d df98 48bd 479d 853c
00000220: 8172 76bd c119 4cbd 3dbb 2abd 6352 8ebd
00000230: 7207 dd3c dd30 dd3d c017 50bb 898e 573d
00000240: e4c1 d13d b839 1cbe 37c0 bcbd 52d7 9c3a
00000250: add0 dabd 68c6 edbc 94ef 47bd 49eb acbd
00000260: b2da 24bc b002 80bd b4be 9d3d 5a45 073e
00000270: 4f6e d53d 8dd7 893d 95b6 033e fd18 103e
00000280: f76a 0b3e 4146 4cba d1a7 d33d ffb9 42bd
00000290: 49d2 4e3d 9f38 353d c056 f53d 1545 eabd
000002a0: ddd3 9fbd 4be1 383c 73bf ac3d 10eb 0dbd
000002b0: edd3 97bd 254d 0abd d3fa a3bd 4762 87bd
000002c0: 8470 cd3d d165 be3b 449d 0cbe aa85 d33c
000002d0: 901a 893d 8b6c d03d 5a03 b33d 9367 a2bd
000002e0: cc3a 663b 371a b2bd 1959 2ebb 04f5 82bd
000002f0: f434 05be 4e30 763d 1018 163c d550 a33d
00000300: 7815 603c d6fc 66bc de5f 04be b493 ad3b
00000310: 4163 6abd 44c4 12be 5628 e7bd 9f0f a4bd
00000320: c261 bebc dd04 e6bb e424 b2bd fe55 28bd
00000330: 0550 debd 9b9a 843d c9f8 f63d d3fb 46bd
00000340: 4c15 083d 912a 95bd eddc 553c 1307 6f3d
00000350: 475d 173d 6a47 c6bb 8ece 9a3d 1d70 c53d
00000360: 7175 c03d 9b5d 933d 824f b7bd ed9f b6bd
00000370: 39e2 0e3e f1f4 753d ab22 dabd 364e 9fbd
00000380: 2558 683d 4b08 13bd f006 cf3d 3a7f 9b3d
00000390: 1f82 993d 129f ec3d c728 c13c d0f4 823d
000003a0: f8c7 cb3d 5a87 953d 92a9 a63d 3ed7 353d
000003b0: 19e1 33bd 50df 183d afe6 1e3e 99ab e3bc
000003c0: e2d5 023e b0a1 f53d e281 143e b59c 733d
000003d0: 4928 313d 9864 eb3d e131 333e 1517 3bbd
000003e0: ace5 fa3a d35c fc3d 79e7 0cbe 78c4 c6bd
000003f0: 0ae1 fabd 72e4 18bd 2953 d6bd 2cad 1fbd

bias f4 [32]
0.026960703 -0.055086028 -0.2256016 0.027296664 0.09635002 -0.27413008 0.044008438 -0.16913246
0.11594029 0.044248644 0.106290065 -0.13796037 0.16689658 0.053179093 -0.14713836 -0.24146487
-0.30863228 -0.024103295 -0.2769332 -0.18508965 0.050875552 0.061622582 0.22472766 -0.038853344
0.044418056 -0.05345462 0.08095886 0.12728932 0.19400728 -0.24299188 -0.106647976 -0.22340415
00000000: b1dc dc3c e3a1 61bd 1b04 67be 419d df3c
00000010: 2953 c53d c75a 8cbe 3142 343d 0f31 2dbe
00000020: 1a72 ed3d 113e 353d 9bae d93d 7c45 0dbe
00000030: f0e6 2a3e 52d2 593d 70ab 16be 9142 77be
00000040: 0d05 9ebe 4674 c5bc 30ca 8dbe 2488 3dbe
00000050: e262 503d f667 7c3d 021f 663e af24 1fbd
00000060: b5ef 353d 3bf3 5abd c2cd a53d 2258 023e
00000070: d8a9 463e ddd2 78be 416a dabd 0fc4 64be

weight f4 [32, 32, 5, 5]
0.015572271 0.0061000613 0.0211897 0.04009473 0.030766858 0.026139753 0.017958641 -0.01095377
-0.028683377 0.012249478 0.034745388 0.0013534161 -0.024690617 0.0056296214 -0.0013809376 0.032994755
0.019868258 0.022534851 -0.0122959195 0.0026199727 0.029564343 -0.004258285 -0.010893644 0.020363651
0.02768927 0.009324159 -0.034467973 -0.038930815 -0.015051199 -0.030788722 -0.021101443 -0.035242084
0.016704462 -0.011303255 -0.014667707 0.008479672 -0.022291357 -0.007298983 -0.021352842 -0.017355796
0.011168102 0.021114064 0.0012125287 0.020687897 0.048281915 -0.007432363 -0.028962363 -0.021165337
-0.0008691154 0.01413108 0.022649229 -0.0050405515 0.01641538 0.0006273389 0.03707777 0.017242609
0.008082028 -0.008380644 0.038257536 0.030474573 -0.03543578 -0.023186464 0.0037809322 0.010440489
0.034739166 0.037126265 0.03857421 0.044293694 0.031370044 0.004129914 -0.025919883 0.04501799
-0.023488084 0.0073315226 0.006513869 -0.008200892 -0.017651888 -0.017353978 -0.022576094 0.031736996
-0.0034206025 -0.026089326 -0.028772919 0.039038356 0.033280984 0.013603996 0.023060268 0.0038871747
0.008711445 0.026221229 -0.014969916 -0.030467575 0.017735198 0.021961423 0.032882266 -0.026996205
0.007255766 0.0063494 -0.007020073 0.024026081 0.019548908 -0.017370565 -0.0050574006 -0.017937446
0.027236264 -0.005926234 0.034538426 0.019533375 0.0074139494 -0.010280708 0.04536058 0.025106283
-0.013572814 0.01958694 -0.03050094 0.024560006 -0.013366521 -0.005812744 0.010902461 0.015683891
-0.008754534 -0.040372744 -0.04334004 0.022114856 0.023890033 0.020427521 -0.007824262 0.013489796
-0.025924934 -0.021481384 -0.015836587 -0.01229222 0.01895753 0.028617196 0.012105993 0.03307063
0.04960117 0.051395815 0.01674352 0.044804905 -0.009402234 0.01164832 0.028811991 0.04859497
0.0217043 0.0030222083 0.024590498 0.01636596 0.041825518 0.031969085 0.0116494885 -0.029135143
0.021802323 0.016261702 -0.0036753379 -0.024194662 0.047135156 0.04649085 0.0031947237 0.045869227
0.053738832 0.097017854 0.061612874 0.015873129 0.025353571 0.078163534 0.023173027 0.028395073
0.025212258 -0.036759224 -0.00093834416 -0.019705446 0.006939445 -0.0057074195 -0.02391356 0.031569034
0.03376201 -0.03634445 0.00016256774 0.021491366 0.037378598 -0.016983122 -0.012365284 0.022164658
0.01589173 0.032944947 -0.010897363 0.040653303 0.041503575 0.021981327 -0.011273535 0.04892899
0.04958585 0.023044651 0.044129144 0.0077549685 -0.0011648193 -0.016878081 -0.015202673 -0.010580711
0.013578156 0.015590329 0.039742295 0.009668889 -0.026351837 0.044607773 0.08568898 0.056654595
-0.011155621 -0.009406842 0.052581124 0.033358175 0.02471381 -0.021555062 -0.0026260933 0.047303114
0.027037973 -0.013313342 -0.014299871 0.01706783 -0.019171646 -0.030350149 0.035582095 -0.026635962
-0.011064779 0.0247046 -0.019928249 0.04620665 0.015581056 0.007993396 -0.013153446 0.05268338
0.021299778 0.006038771 -0.0116993915 0.061971188 0.048912294 -0.022820769 0.013914062 -0.008868176
-0.018145686 0.022163581 -0.02661369 0.033660516 -0.004978244 0.012636384 -0.010728158 -0.028863778
0.026795866 0.039929394 -0.017686019 -0.02510882 -0.014181127 -0.011152003 0.010492517 0.010297533
00000000: d722 7f3c 06e3 c73b 0696 ad3c 5f3a 243d
00000010: c70a fc3c 0923 d63c 001e 933c 7177 33bc
00000020: 67f9 eabc 09b2 483c 2e51 0e3d 1c65 b13a
00000030: fa43 cabc b078 b83b 9400 b5ba 8225 073d
00000040: c2c2 a23c 029b b83c d374 49bc d9b3 2b3b
00000050: ec30 f23c 1589 8bbb 417b 32bc acd1 a63c
00000060: 9cd4 e23c 5bc4 183c 4a2e 0dbd eb75 1fbd
00000070: 4e99 76bc a138 fcbc efdc acbc 015a 10bd
00000080: ccd7 883c 4a31 39bc d250 70bc 52ee 0a3c
00000090: 5d9c b6bc 4f2c efbb 28ec aebc be2d 8ebc
000000a0: 6afa 363c 67f7 ac3c b6ed 9e3a aa79 a93c
000000b0: 42c3 453d 2e8b f3bb 7a42 edbc ee62 adbc
000000c0: 59d5 63ba 0c86 673c e08a b93c 362b a5bb
000000d0: 8c79 863c 0074 243a dcde 173d 5f40 8d3c
000000e0: 7b6a 043c f84e 09bc efb3 1c3d d0a5 f93c
000000f0: 1c25 11bd 8af1 bdbc 84c9 773b 960e 2b3c
00000100: a84a 0e3d b611 183d feff 1d3d 4e6d 353d
00000110: e07d 003d 3b54 873b ef55 d4bc c964 383d
00000120: 156a c0bc 453d f03b 4b72 d53b 095d 06bc
00000130: b19a 90bc ee29 8ebc 80f1 b8bc a7fe 013d
00000140: 302c 60bb 48b9 d5bc 2fb5 ebbc afe6 1f3d
00000150: a451 083d 4be3 5e3c e3e8 bc3c f8bf 7e3b
00000160: 73ba 0e3c e7cd d63c 6144 75bc 2397 f9bc
00000170: 6849 913c 71e8 b33c 8eaf 063d 2527 ddbc
00000180: c7c1 ed3b a10e d03b a408 e6bb 58d2 c43c
00000190: 0825 a03c b74c 8ebc 8db8 a5bb 8df1 92bc
000001a0: 961e df3c db30 c2bb 2a78 0d3d 7504 a03c
000001b0: b7f0 f23b 6a70 28bc 04cc 393d b1ab cd3c
000001c0: 8260 5ebc ca74 a03c 1bdd f9bc 1132 c93c
000001d0: 41ff 5abc d578 bebb 3ca0 323c 817b 803c
000001e0: 2d6f 0fbc e45d 25bd 5385 31bd 372a b53c
000001f0: 08b5 c33c 9e57 a73c 5531 00bc 4e04 5d3c
00000200: 8760 d4bc baf9 afbc bbbb 81bc 4f65 49bc
00000210: d24c 9b3c 9c6e ea3c 3758 463c 1275 073d
00000220: 992a 4b3d 6b84 523d b529 893c 5985 373d
00000230: d40b 1abc 98d8 3e3c 2007 ec3c 850b 473d
00000240: 37cd b13c 3e10 463b 0372 c93c e811 863c
00000250: 3c51 2b3d 04f2 023d 7fdd 3e3c d3ac eebc
00000260: c99a b23c 4337 853c f0dd 70bb e233 c6bc
00000270: cb10 413d 316d 3e3d 925e 513b 5fe1 3b3d
00000280: 401d 5c3d 4cb1 c63d c85d 7c3d 5d08 823c
00000290: 4bb2 cf3c 3414 a03d 5cd5 bd3c c99c e83c
000002a0: f089 ce3c d790 16bd 36fb 75ba 516d a1bc
000002b0: 4964 e33b 4e05 bbbb 5fe6 c3bc 884e 013d
000002c0: 094a 0a3d ebdd 14bd f276 2a39 a90e b03c
000002d0: 4d1a 193d 3020 8bbc c397 4abc a892 b53c
000002e0: 602f 823c 48f1 063d da8a 32bc 1484 263d
000002f0: a7ff 293d 2f12 b43c a2b4 38bc c469 483d
00000300: 881a 4b3d 23c8 bc3c c3c0 343d 641d fe3b
00000310: daac 98ba e743 8abc a214 79bc b85a 2dbc
00000320: ea76 5e3c 946e 7f3c d1c8 223d 436a 1e3c
00000330: cfdf d7bc a4b6 363d b47d af3d a60e 683d
00000340: 11c6 36bc 281f 1abc 4e5f 573d 95a2 083d
00000350: 9e74 ca3c 3e94 b0bc 891a 2cbb e9c0 413d
00000360: bd7e dd3c 3420 5abc 024a 6abc d5d1 8b3c
00000370: db0d 9dbc e0a0 f8bc 88be 113d a933 dabc
00000380: 0c49 35bc 4d61 ca3c 9140 a3bc 2f43 3d3d
00000390: af47 7f3c bcf6 023c 8d81 57bc 87ca 573d
000003a0: df7c ae3c e2e0 c53b ceae 3fbc 80d5 7d3d
000003b0: 4258 483d 9ff2 babc cef7 633c d34b 11bc
000003c0: 43a6 94bc 6690 b53c f404 dabc 9cdf 093d
000003d0: 8a20 a3bb d608 4f3c 28c5 2fbc bb73 ecbc
000003e0: 0183 db3c 018d 233d 45e2 90bc 03b1 cdbc
000003f0: f557 68bc e4b6 36bc cee8 2b3c fcb6 283c

bias f4 [32]
-0.10239166 -0.08126356 -0.09858144 -0.09187511 -0.08318369 -0.008447005 0.008954468 -0.057661608
-0.052428108 -0.06874281 -0.06902793 0.018780507 -0.0064799343 -0.0710686 -0.058833346 0.016109347
-0.04677887 -0.056129772 -0.07711868 0.036536712 -0.028356 -0.06006634 -0.05323883 0.08105166
0.09947516 -0.0427755 -0.009430755 0.03993365 -0.078544244 -0.11959767 0.010362474 0.009347415
00000000: b8b2 d1bd 826d a6bd 11e5 c9bd 0529 bcbd
00000010: 365c aabd 4f65 0abc c3b5 123c 942e 6cbd
00000020: dbbe 56bd 08c9 8cbd 845e 8dbd 94d9 993c
00000030: a155 d4bb 6a8c 91bd 3cfb 70bd c0f7 833c
00000040: 339b 3fbd 55e8 65bd 66f0 9dbd 85a7 153d
00000050: d84a e8bc 1f08 76bd f610 5abd 6afe a53d
00000060: a2b9 cb3d 5d35 2fbd 7483 1abc 7891 233d
00000070: cedb a0bd a0ef f4bd 5ec7 293c e625 193c

weight f4 [64, 32, 5, 5]
-0.014389669 -0.033655908 0.029816784 -0.0062634703 0.014621952 0.016491003 0.0051398217 0.013578454
-0.0032745246 0.042562857 0.030605428 -0.013727444 -0.030109419 -0.029219968 0.0015053529 0.039083235
0.017360574 -0.007117845 -0.002696594 0.011021241 0.030299554 -0.009202746 -0.005504286 0.057899553
-0.011227607 0.003928369 0.0077713765 -0.029547546 -0.00016595212 0.024413982 0.0075934897 0.033152923
-0.011740064 0.006506553 0.03713024 0.037179496 -0.041639384 -0.024512634 0.041688077 0.047054317
0.03742764 0.0034273884 -0.02752086 0.03546535 0.027366398 0.022526514 0.049078602 0.010265359
-0.03216059 0.0020258385 -0.007890307 -0.0010540059 -0.01102965 0.01847867 0.025309017 0.0033493002
0.03120835 -0.019419132 -0.006482824 -0.04611393 -0.034769144 0.0003983123 0.029622842 0.042833664
0.0074508325 0.010702683 -0.037080575 -0.039158616 -0.026932413 -0.037439566 0.00840565 -0.005792846
0.019686274 -0.025762256 -0.029725183 -0.009355056 0.038295317 -0.035895035 0.009441502 -0.051633272
-0.017660804 -0.01183363 -0.066071965 -0.027310904 -0.0065171677 0.022888055 0.021497358 0.054014042
-0.015888693 0.021201719 0.01983163 0.008230899 0.047383156 0.06463078 0.04904023 -0.016725246
-0.024727134 0.06309675 0.048113547 0.042614035 -0.0051463423 -0.03631015 0.016857816 0.033614986
0.015891057 -0.0037606363 -0.01634212 0.013917601 0.029543685 -0.0151671 0.02016809 0.021644695
0.03594577 -0.0162301 0.016651548 -0.014132933 -0.031714838 -0.0159572 0.028991766 0.025172086
-0.009006557 0.01303358 0.02760707 0.003866573 0.017316679 0.02722302 -0.017595388 0.02267312
0.03508522 0.018966932 -0.029318538 0.023168983 -0.0059205745 0.022723861 -0.02068098 -0.007959261
-0.040999893 -0.022428064 0.0073482026 -0.01824277 -0.023569912 0.0006036282 -0.012185083 -0.002116918
-0.014560333 0.006101105 0.031926416 -0.020803824 -0.041541472 -0.034203924 0.03653027 0.020712163
0.023948312 -0.02096139 -0.020787042 0.011940895 -0.009440113 0.017252967 0.009012873 0.025202842
-0.028261928 0.0056169964 0.060528696 0.041586943 -0.012408619 -0.046275288 -0.07040305 -0.025290528
0.05138505 0.025393274 -0.027834652 -0.050396282 -0.051656716 -0.011674733 -0.011269676 0.0014151911
-0.023549847 0.042000495 -0.009486456 -0.020942664 0.0050694416 -0.038675986 0.036167465 0.013406058
0.004403084 0.040287092 0.022321302 0.016483018 0.036384087 0.019152898 -0.0063006226 0.028523386
0.0107507035 0.007267656 0.04610642 0.01092328 0.03449916 -0.04468249 0.014476308 0.024421213
-0.016689723 -0.00023711764 0.05129735 -0.02148509 0.0217359 0.030236492 0.017390706 0.0008349697
0.005656751 -0.0054720687 0.005703685 -0.05302878 0.038517274 0.021640822 0.053689938 -0.0064174524
-0.013779169 -0.011368882 0.07175139 0.0031967158 0.03140535 0.016066298 -0.027761957 0.044442575
0.015182478 0.0048721572 0.044130247 0.044173405 0.028824199 0.015242783 0.041927043 0.038562916
-0.008647323 -0.007980123 -0.008352138 -0.0030022534 0.03445668 0.07169886 -0.0072071403 0.014123117
-0.046072 -0.04677849 0.0012068799 0.06792048 -0.015608932 0.0006730872 -0.006168519 -0.0721485
0.024367431 -0.007574885 0.01537079 0.023151387 -0.02086228 -0.0059527266 0.0016617054 0.026881106
00000000: a5c2 6bbc c7da 09bd 5442 f43c cc3d cdbb
00000010: e990 6f3c 2418 873c f36b a83b 2a78 5e3c
00000020: 6899 56bb 6456 2e3d 3cb8 fa3c 13e9 60bc
00000030: 07a8 f6bc b75e efbc 434f c53a be15 203d
00000040: c337 8e3c d03c e9bb 57b9 30bb 6f92 343c
00000050: c536 f83c 1dc7 16bc 4c5d b4bb 1528 6d3d
00000060: fff3 37bc 8cb9 803b 08a7 fe3b b20d f2bc
00000070: 6f03 2eb9 d5ff c73c cfd2 f83b 5ccb 073d
00000080: 6659 40bc ec34 d53b e115 183d 8749 183d
00000090: 0f8e 2abd b8ce c8bc 1ec1 2a3d 07bc 403d
000000a0: ba4d 193d 099e 603b 6d73 e1bc 1d44 113d
000000b0: 7f2f e03c 8689 b83c a506 493d 0930 283c
000000c0: d3ba 03bd eec3 043b 5946 01bc 9226 8aba
000000d0: b5b5 34bc 9460 973c db54 cf3c ef7f 5b3b
000000e0: a7a8 ff3c df14 9fbc df6d d4bb f6e1 3cbd
000000f0: 176a 0ebd 92d4 d039 9aab f23c 5a72 2f3d
00000100: 1d26 f43b 4e5a 2f3c cde1 17bd c964 20bd
00000110: 5da1 dcbc 3b5a 19bd dab7 093c ead1 bdbb
00000120: 1c45 a13c 5e0b d3bc 3a82 f3bc f345 19bc
00000130: 8ddb 1c3d ac06 13bd 88b0 1a3c 697d 53bd
00000140: 64ad 90bc d7e1 41bc bd50 87bd 1ebb dfbc
00000150: f78d d5bb bb7f bb3c 3a1b b03c d43d 5d3d
00000160: 0129 82bc 3aaf ad3c f175 a23c e5da 063c
00000170: d714 423d 245d 843d 69de 483d 6203 89bc
00000180: 8f90 cabc de38 813d b612 453d 0e8c 2e3d
00000190: a6a2 a8bb f4b9 14bd 6719 8a3c deaf 093d
000001a0: f62d 823c 0275 76bb e9df 85bc a606 643c
000001b0: 9905 f23c 6e7f 78bc 8d37 a53c 3750 b13c
000001c0: df3b 133d fdf4 84bc d468 883c d18d 67bc
000001d0: 6be7 01bd adb8 82bc 2480 ed3c b135 ce3c
000001e0: 3d90 13bc cc8a 553c 3928 e23c 5566 7d3b
000001f0: b5db 8d3c d002 df3c 3424 90bc fbbc b93c
00000200: 85b5 0f3d 8a60 9b3c 6e2d f0bc e1cc bd3c
00000210: 6101 c2bb 6427 ba3c 296b a9bc 8f67 02bc
00000220: 81ef 27bd 0fbb b7bc 31c9 f03b dd71 95bc
00000230: b015 c1bc ce3c 1e3a f1a3 47bc febb 0abb
00000240: 778e 6ebc c7eb c73b 46c5 023d c86c aabc
00000250: 6427 2abd 6a19 0cbd c4a0 153d 8eac a93c
00000260: 402f c43c 39b7 abbc 9649 aabc bea3 433c
00000270: b4aa 1abc 1856 8d3c bbaa 133c 3176 ce3c
00000280: 8f85 e7bc c80e b83b f0ec 773d 1257 2a3d
00000290: 854d 4bbc 288b 3dbd 792f 90bd 152e cfbc
000002a0: 2179 523d 8e05 d03c 7f05 e4bc 556c 4ebd
000002b0: fe95 53bd 6147 3fbc 72a4 38bc ef7d b93a
000002c0: 9ceb c0bc b608 2c3d 156d 1bbc f38f abbc
000002d0: 8f1d a63b b66a 1ebd 5624 143d 15a5 5b3c
000002e0: bf47 903b 1404 253d 2adb b63c 6507 873c
000002f0: 7b07 153d 8ae6 9c3c 7475 cebb e0a9 e93c
00000300: b823 303c 8425 ee3b 16da 3c3d 8ff7 323c
00000310: fe4e 0d3d fd04 37bd 092e 6d3c ff0e c83c
00000320: e3b8 88bc c8a2 78b9 2c1d 523d 8001 b0bc
00000330: 7c0f b23c 85b2 f73c f476 8e3c dee1 5a3a
00000340: 445c b93b 0a4f b3bb fae5 ba3b b534 59bd
00000350: 4ac4 1d3d 1848 b13c fbe9 5b3d 7e49 d2bb
00000360: 06c2 61bc 8c44 3abc 65f2 923d fe7f 513b
00000370: e5a2 003d 789d 833c 0b6d e3bc 6b09 363d
00000380: eebf 783c 9ea6 9f3b ebc1 343d 2cef 343d
00000390: ba20 ec3c debc 793c b1bb 2b3d 26f4 1d3d
000003a0: 80ad 0dbc 10bf 02bc 68d7 08bc 74c1 44bb
000003b0: 7322 0d3d dad6 923d e029 ecbb a564 673c
000003c0: feb5 3cbd cd9a 3fbd 2b30 9e3a e519 8b3d
000003d0: 9bbc 7fbc 1e72 303a 4a21 cabb 98c2 93bd
000003e0: 359e c73c be36 f8bb c4d5 7b3c faa7 bd3c
000003f0: 5fe7 aabc 170f c3bb 95cd d93a c435 dc3c

bias f4 [64]
-0.05477415 -0.06233129 0.00041453616 -0.07591755 -0.04011725 0.009718571 -0.009825196 0.009616359
-0.0023955498 -0.02508454 -0.0134370485 -0.0056267446 0.024066575 -0.0065656416 -0.059401024 0.04093634
-0.02086222 0.008737326 -0.035745934 -0.0071948715 -0.03226852 -0.007764602 0.01727902 -0.04760432
-0.06894289 -0.006280373 -0.024139458 -0.07105341 -0.012531831 -0.031334136 -0.04989552 0.029124739
-0.03394301 -0.04339798 0.0010457669 -0.059959654 -0.07695896 -0.06601734 -0.036014613 0.026427895
0.023051186 -0.028704293 0.0498981 0.019680398 -0.011009919 -0.03270809 -0.07185881 0.010287503
0.0027602033 -0.08433369 -0.045168016 0.0051763095 -0.00087417004 0.004470235 -0.00086757215 -0.041311428
-0.06820478 -0.011723885 -0.018353593 -0.006115389 -0.03494535 -0.013782399 -0.08358799 -0.04775924
00000000: dc5a 60bd 184f 7fbd 1a56 d939 a97a 9bbd
00000010: fc51 24bd a43a 1f3c dcf9 20bc ef8d 1d3c
00000020: a8fe 1cbb 187e cdbc 1127 5cbc 8e60 b8bb
00000030: 4427 c53c 9824 d7bb 7d4e 73bd ddac 273d
00000040: 3fe7 aabc 0027 0f3c 546a 12bd f5c2 ebbb
00000050: ff2b 04bd 346e febb bb8c 8d3c bffc 42bd
00000060: ee31 8dbd 96cb cdbb 1dc0 c5bc 7384 91bd
00000070: 4f52 4dbc 3958 00bd 3f5f 4cbd 0197 ee3c
00000080: d307 0bbd 15c2 31bd 1d12 893a 4198 75bd
00000090: a99c 9dbd 1934 87bd 0f84 13bd 507f d83c
000000a0: d7d5 bc3c 4425 ebbc f361 4c3d c938 a13c
000000b0: f362 34bc ebf8 05bd b62a 93bd ea8c 283c
000000c0: 87e4 343b 24b7 acbd 1902 39bd 089e a93b
000000d0: 8f28 65ba 0d7b 923b c86d 63ba 2c36 29bd
000000e0: f3ae 8bbd 8a15 40bc 465a 96bc 9a63 c8bb
000000f0: db22 0fbd 92cf 61bc 2e30 abbd 319f 43bd

weight f4 [64, 1024]
0.007817364 -0.008012624 -0.008631562 0.028273614 -0.017055418 0.02590632 -0.002545891 -0.013342726
0.047872603 -0.0022118224 0.004428872 0.0077089644 -0.049736157 0.035725974 0.0117996335 0.032540888
0.031004054 -0.015164589 -0.017118126 -0.008481099 -0.042809244 -0.02626894 -0.04426499 -0.010814303
0.01359563 0.042167798 0.041444533 0.02009835 0.017709278 -0.026183028 0.011302299 -0.015149502
-0.029358536 0.001909341 -0.005171688 -0.010204244 0.010739978 0.024603138 -0.010040659 0.039795384
-0.019431623 0.03929076 -0.003618201 -0.020186787 -0.025753707 0.008061492 0.0040700585 0.02105226
-0.008256722 -0.005847374 -0.005422129 -0.0021572276 -0.012170794 0.0019041199 0.03799341 -0.023933321
-0.009994957 0.011349775 0.038134377 -0.004664593 -0.017681727 -0.015958251 -0.0081688 0.00970271
0.00066832174 -0.001767267 -0.0035451755 0.013856051 0.039803177 0.029082777 -0.02149553 -0.013186451
0.017370202 -0.011457815 0.01757682 -0.024547558 -0.0024913617 0.033944443 -0.015050532 0.015549046
-0.009751271 -0.006675549 -0.024330422 0.03772119 -0.007827185 -0.009418792 -0.007573113 0.004122088
-0.021422893 0.01280517 -0.024836367 0.01372371 -0.007962315 0.0227973 0.012516109 0.025840651
0.02447578 -0.02090886 -0.027128188 -0.009617541 0.035093136 -0.027071219 -0.032985877 0.0065068356
-0.018603805 0.0024785686 -0.039550602 -0.018869638 0.00019229471 0.023161134 0.015423694 0.011139769
0.034617383 -0.027796386 -0.016085235 0.007921698 0.020883739 -0.003170749 -0.0006827469 0.01399815
0.0011268237 -0.0147815095 0.037439894 -0.015446323 0.024295809 -0.0041701547 -0.017927235 -0.025859252
-0.022518508 0.02910706 -0.028174661 0.03661198 -0.008763246 -0.0245148 -0.017204879 0.00971966
-0.027806638 0.013989927 0.0197177 -0.0013544548 -0.014357218 0.0069312556 -0.010340294 -0.012770575
0.046459574 -0.009779236 0.007609079 0.0010334068 -0.021527847 0.013240723 0.026032431 0.009199441
0.028103877 0.010696115 0.005276833 0.029926829 0.021955604 -0.029891573 0.02407842 0.0325853
0.025755405 -0.0214834 -0.018904226 -0.025204616 0.014853087 -0.0020223516 0.017502706 0.027332356
0.009076223 -0.034704786 -0.025052598 -0.025798043 0.022128232 -0.022602765 -0.04977502 -0.002119304
-0.013251738 -0.0348027 -0.034378614 0.0073333336 -0.00835078 -0.017563352 0.026658071 0.019155014
0.0129553415 -0.023588777 -0.011370755 -0.0125522595 0.016314356 0.014670128 0.009245335 0.004458264
0.022237968 0.010069956 -0.0021779437 0.0072510988 -0.0014988597 0.0025291995 -0.03552135 0.0038743806
0.018611858 0.022413999 -0.005063938 -0.03419837 0.036447078 0.027119145 -0.039330915 -0.022812404
-0.011828842 -0.0069731628 0.019470476 0.014985444 0.0022695502 0.01741749 0.04161647 -0.016489718
-0.028668573 -0.030980762 0.011087994 -0.001884847 0.02167217 0.032878757 0.026090465 -0.008185575
0.0025099257 0.019454155 -0.037823148 0.03215924 0.04055005 0.019817902 -0.016036576 0.010922928
0.008698155 0.042317264 -0.031040803 -0.050323464 -0.012628764 0.029463556 -0.021820806 -0.026847953
0.021599928 0.004605547 -0.011164155 -0.007790666 -0.031834405 -0.010498912 0.025500445 0.019030737
0.013429414 -0.029056884 -0.02295145 -0.007931678 -0.02776589 0.001009624 -0.0017702644 -0.007238051
00000000: 6714 003c 6247 03bc 656b 0dbc 119e e73c
00000010: ceb7 8bbc 7e39 d43c f7d8 26bb 739b 5abc
00000020: 1016 443d 39f4 10bb 1220 913b 7b9b fc3b
00000030: 24b8 4bbd 6655 123d 4053 413c 9849 053d
00000040: 37fc fd3c e574 78bc 503b 8cbc 4ff4 0abc
00000050: bf58 2fbd f631 d7bc 354f 35bd 792e 31bc
00000060: 35c0 5e3c 24b8 2c3d bec1 293d 4ba5 a43c
00000070: 0c13 913c ca7d d6bc 472d 393c 9e35 78bc
00000080: 5081 f0bc da42 fa3a 4377 a9bb b42f 27bc
00000090: bcf6 2f3c 858c c93c 9481 24bc 7c00 233d
000000a0: 112f 9fbc 59ef 203d 571f 6dbb c35e a5bc
000000b0: 70f9 d2bc 5914 043c 205e 853b ca75 ac3c
000000c0: 3447 07bc 549b bfbb 1dac b1bb 4660 0dbb
000000d0: 0368 47bc a993 f93a fa9e 1b3d d00f c4bc
000000e0: e3c1 23bc 68f4 393c cb32 1c3d 71d9 98bb
000000f0: 45d9 90bc e1ba 82bc 6ed6 05bc 1ef8 1e3c
00000100: 5032 2f3a a4a3 e7ba 2d56 68bb 7d04 633c
00000110: a808 233d 013f ee3c 6517 b0bc fc0b 58bc
00000120: f44b 8e3c 8fb9 3bbc 43fd 8f3c f617 c9bc
00000130: 1d46 23bb 5409 0b3d 8296 76bc 6dc1 7e3c
00000140: ccc3 1fbc 90be dabb 9850 c7bc 8981 1a3d
00000150: 983d 00bc 4751 1abc e027 f8bb 9512 873b
00000160: 107f afbc c7cc 513c a375 cbbc 69d9 603c
00000170: 5f74 02bc 67c1 ba3c 5e10 4d3c c6af d33c
00000180: 6e81 c83c 0f49 abbc ef3b debc e492 1dbc
00000190: d2bd 0f3d 76c4 ddbc 331c 07bd 4b37 d53b
000001a0: 0267 98bc 7b6f 223b d0ff 21bd 8094 9abc
000001b0: b8a2 4939 6bbc bd3c a9b3 7c3c 9483 363c
000001c0: f5ca 0d3d 3fb5 e3bc 2fc5 83bc 02ca 013c
000001d0: 6014 ab3c 57cc 4fbb 5efa 32ba 7f58 653c
000001e0: eeb1 933a 252e 72bc 935a 193d 9312 7dbc
000001f0: 0108 c73c cba5 88bb 23dc 92bc c8d6 d3bc
00000200: bc78 b8bc ee71 ee3c 8cce e6bc 72f6 153d
00000210: b893 0fbc 43d3 c8bc 3ff1 8cbc 353f 1f3c
00000220: bfca e3bc 0236 653c 0487 a13c f687 b1ba
00000230: 893a 6bbc 961f e33b 566a 29bc ac3b 51bc
00000240: 654c 3e3d 1739 20bc 9555 f93b 6173 873a
00000250: 2b5b b0bc 9eef 583c f741 d53c 41b9 163c
00000260: 1a3a e63c c23e 2f3c 49e9 ac3b 1c29 f53c
00000270: 3ddc b33c 2cdf f4bc 1b40 c53c 2a78 053d
00000280: 00fd d23c f5fd afbc 09dd 9abc e979 cebc
00000290: 5d5a 733c 6e89 04bb d661 8f3c 1be8 df3c
000002a0: 70b4 143c 9b26 0ebd 1b3b cdbc 6b56 d3bc
000002b0: 4446 b53c 6f29 b9bc e4e0 4bbd 05e4 0abb
000002c0: d11d 59bc 478d 0ebd 97d0 0cbd 764c f03b
000002d0: b6d1 08bc 05e1 8fbc 0762 da3c faea 9c3c
000002e0: a442 543c 403d c1bc 674c 3abc fea7 4dbc
000002f0: afa5 853c fa5a 703c bf79 173c a116 923b
00000300: 662c b63c 75fc 243c d5bb 0ebb a09a ed3b
00000310: 6375 c4ba edc0 253b d67e 11bd 52e9 7d3b
00000320: e577 983c 909d b73c 64ef a5bb 9713 0cbd
00000330: 8849 153d f828 de3c 7419 21bd 14e1 babc
00000340: c2cd 41bc 217f e4bb 8c80 9f3c 8285 753c
00000350: bcbc 143b 20af 8e3c 0876 2a3d 7215 87bc
00000360: 5bda eabc 5ecb fdbc 6baa 353c f80c f7ba
00000370: d689 b13c e0ab 063d acbb d53c ca1c 06bc
00000380: 917d 243b 525e 9f3c 72ec 1abd 68b9 033d
00000390: cf17 263d 2759 a23c 235f 83bc 15f6 323c
000003a0: b582 0e3c de54 2d3d 4849 febc fa1f 4ebd
000003b0: e0e8 4ebc 8e5d f13c 8cc1 b2bc 3df0 dbbc
000003c0: 55f2 b03c 21ea 963b dce9 36bc d848 ffbb
000003d0: cb64 02bd a103 2cbc 4fe6 d03c 59e6 9b3c
000003e0: 0b07 5c3c b408 eebc ae04 bcbc def3 01bc
000003f0: 4b75 e3bc 5c55 843a 3708 e8ba 2c2d edbb

bias f4 [64]
-0.02690654 -0.03214445 -0.013596522 0.019654468 0.022365846 -0.015526575 -0.012476951 -0.003867143
0.055110447 0.02619787 0.0017266003 0.021326778 -0.06890474 0.048499554 0.024761368 0.04653195
0.012906449 -0.026862172 -0.009773068 -0.011537513 0.028076148 0.020762235 -0.023002727 0.006033795
-0.010046428 -0.02572231 0.011129056 0.02511454 -0.025374055 -0.004819985 0.00888078 0.028862117
-0.012161361 -0.021833522 0.009135249 0.040148214 0.030813752 0.0672445 -0.019425612 0.027392782
0.006049541 -0.010992969 -0.0120274965 0.00047157213 -0.036040924 -0.05789702 0.04073803 0.021668421
-0.0016739223 0.035955034 -0.022647005 0.03333855 -0.006779947 -0.031080784 0.0020400514 0.020346526
0.018124223 0.010922752 0.03018704 0.012825305 0.037762668 0.003927629 -0.015340242 0.0016864515
00000000: 1b6b dcbc e6a9 03bd f2c3 5ebc 6802 a13c
00000010: 9438 b73c 2d63 7ebc 206c 4cbc e56f 7dbb
00000020: 7ebb 613d ea9c d63c 184f e23a 7fb5 ae3c
00000030: ee1d 8dbd 78a7 463d 5ad8 ca3c 4998 3e3d
00000040: 9275 533c 0f0e dcbc 381f 20bc d607 3dbc
00000050: f3ff e53c 9015 aa3c 3770 bcbc 24b7 c53b
00000060: c699 24bc 98b7 d2bc a556 363c 02bd cd3c
00000070: 40dd cfbc f7f0 9dbb b180 113c 3f70 ec3c
00000080: 7240 47bc 37dc b2bc 03ac 153c 7472 243d
00000090: 1f6d fc3c 7cb7 893d 7622 9fbc d466 e03c
000000a0: 3a3b c63b db1b 34bc fa0e 45bc 573d f739
000000b0: a69f 13bd 6d25 6dbd ecdc 263d f981 b13c
000000c0: 8367 dbba 9645 133d 3686 b9bc 018e 083d
000000d0: 512a debb 219d febc 62b2 053b c2ad a63c
000000e0: 4079 943c 58f5 323c d04a f73c 3a21 523c
000000f0: 07ad 1a3d 57b3 803b a355 7bbc ec0b dd3a

weight f4 [10, 64]
-0.1554495 -0.00568502 0.18141498 -0.05933322 -0.059897386 0.21676938 0.20843475 0.08967107
-0.1256827 -0.21082217 -0.1117071 0.04672868 0.21242155 0.039878193 -0.076759696 -0.06937491
-0.075134 0.022677688 0.03926959 -0.1396684 -0.09077984 -0.13311216 0.12566403 -0.050979465
-0.06911145 0.22302203 0.15551072 0.015040087 -0.150302 -0.019275174 -0.0002677306 -0.13575959
0.0276075 0.037249874 -0.15127099 0.039602745 0.011261303 0.089120805 -0.12623179 0.08249901
-0.15325269 -0.055171326 0.18384512 -0.09363883 0.021146616 0.14668623 -0.19062078 -0.13706046
-0.18239738 0.10086341 0.15340346 0.1464945 0.088228315 -0.061255064 -0.13502449 -0.0922816
-0.2066215 -0.132196 0.13935551 0.058018293 -0.19316249 -0.0170527 -0.09330855 -0.120825045
0.016733639 -0.07670471 -0.16595641 -0.0001885297 -0.3418619 0.04548542 -0.20079108 -0.20470965
-0.06507243 0.12882732 -0.21079484 0.013143698 -0.22008984 -0.031548277 -0.03734414 -0.12990174
-0.049850583 0.07949599 -0.034255948 0.32728472 0.07119559 0.26271868 0.08002417 -0.16404645
-0.12627646 0.26960444 0.052575503 -0.09680383 0.048530493 0.17443128 -0.04846654 -0.1338049
-0.018387182 0.012826323 0.10398911 -0.16119462 -0.13124754 0.04626873 -0.26501372 -0.12633826
-0.1991893 0.001280349 0.14588727 0.17242673 0.17125994 0.2874305 -0.04874681 0.18526793
-0.23042904 0.12833592 -0.13057184 0.03210433 -0.06476476 -0.17229283 -0.20538394 -0.070794694
0.1555177 0.0001942833 -0.02474588 0.23274808 0.2378133 -0.036215935 0.14863658 -0.028802501
0.137801 0.07224091 -0.1538157 -0.022107398 0.116961636 0.048030797 -0.021153245 0.012039245
-0.015976235 0.14232701 -0.003711555 -0.037263244 -0.04047744 -0.19751067 -0.14306952 -0.07933889
-0.025326716 0.079688355 -0.14238787 -0.14386858 0.04603788 -0.18810911 0.08793128 0.0032149628
0.06531604 -0.025910141 0.15127052 -0.15100978 -0.086964674 -0.11512168 -0.100979455 0.15986758
-0.12811185 0.07647147 -0.035251867 0.15608308 0.044509493 -0.07176003 -0.1372539 0.1710756
-0.07530066 0.19859666 0.12207091 0.07954517 -0.024765564 -0.1819702 -0.06261076 -0.005020638
0.008282304 -0.019094387 -0.031002844 0.074808896 0.1435734 -0.11462967 0.12688604 0.16875176
-0.17585891 0.028043581 -0.115298614 -0.23828356 -0.124578275 -0.08478828 -0.16032931 -0.001423708
0.036268022 -0.16433857 0.11074491 0.021873552 0.17192023 -0.17437546 0.03236548 0.15409662
0.09577454 -0.0014799586 0.038443644 -0.09045956 -0.17793654 0.07962114 -0.090448596 0.06134786
0.14957555 -0.041050404 -0.062943906 -0.09339798 0.15232651 -0.05167983 0.09265055 -0.14171192
0.086878106 -0.10209437 -0.026731854 0.08772068 -0.0711186 0.011536124 -0.16193055 0.15228063
0.12816241 0.05493759 0.09590603 0.017805204 -0.0018622698 0.002973719 -0.043790404 -0.034947738
-0.1240081 0.074707344 0.09463017 0.15374726 -0.0820219 0.1288659 -0.017242292 -0.19973509
0.033093743 -0.02861034 -0.10969991 -0.10198708 0.08097444 -0.097086474 0.07600561 0.113017656
0.09980665 -0.019048918 0.11874962 -0.123954214 -0.06369948 -0.06290075 -0.029320544 0.044531696
00000000: 272e 1fbe 6749 babb d9c4 393e 6407 73bd
00000010: f656 75bd cbf8 5d3e eb6f 553e 77a5 b73d
00000020: f7b2 00be c4e1 57be b1c6 e4bd 9366 3f3d
00000030: 0985 593e 5157 233d 3034 9dbd 6f14 8ebd
00000040: dbdf 99bd 8fc6 b93c 26d9 203d 3c05 0fbe
00000050: c8ea b9bd 8e4e 08be 12ae 003e d8cf 50bd
00000060: 4e8a 8dbd e35f 643e 343e 1f3e b26a 763c
00000070: c4e8 19be f8e6 9dbc 315e 8cb9 9004 0bbe
00000080: 2029 e23c 5393 183d c8e6 1abe 7d36 223d
00000090: 5481 383c f884 b63d e842 01be 3ef5 a83d
000000a0: 46ee 1cbe 54fb 61bd e541 3c3e b7c5 bfbd
000000b0: ab3b ad3c ea34 163e 1832 43be 9459 0cbe
000000c0: 61c6 3abe 7a91 ce3d cc15 1d3e a702 163e
000000d0: 0cb1 b43d 97e6 7abd dc43 0abe 23fe bcbd
000000e0: 9694 53be 635e 07be 36b3 0e3e 97a4 6d3d
000000f0: 63cc 45be 1bb2 8bbc 8e18 bfbd 1f73 f7bd
00000100: fc14 893c 5c17 9dbd 7af0 29be 0eb0 45b9
00000110: 8608 afbe eb4e 3a3d 2d9c 4dbe 689f 51be
00000120: b244 85bd 4feb 033e 9ada 57be aa58 573c
00000130: 3b5f 61be c438 01bd 2bf6 18bd f604 05be
00000140: 2030 4cbd cbce a23d f74f 0cbd dd91 a73e
00000150: fece 913d 1083 863e b6e3 a33d cbfb 27be
00000160: 9e4e 01be 9809 8a3e 6959 573d 1641 c6bd
00000170: e9c7 463d 1d9e 323e da84 46bd 2704 09be
00000180: b7a0 96bc 7f25 523c 3ef8 d43d 3410 25be
00000190: c165 06be 4884 3d3d e1af 87be d15e 01be
000001a0: 48f8 4bbe 62d1 a73a 7963 153e a290 303e
000001b0: c45e 2f3e 172a 933e bcaa 47bd e0b6 3d3e
000001c0: 97f5 6bbe 7e6a 033e a0b4 05be d47f 033d
000001d0: 63a3 84bd 886d 30be 2b50 52be cffc 90bd
000001e0: 0840 1f3e 87b8 4b39 dfb7 cabc 8355 6e3e
000001f0: 5485 733e 2957 14bd 3034 183e 39f3 ebbc
00000200: b51b 0d3e 0bf3 933d dd81 1dbe 931a b5bc
00000210: 9589 ef3d f1bb 443d 9249 adbc 4140 453c
00000220: 98e0 82bc 2cbe 113e 8f3d 73bb 58a1 18bd
00000230: accb 25bd 3d40 4abe d180 12be 6e7c a2bd
00000240: f979 cfbc a633 a33d 20ce 11be 4952 13be
00000250: 3792 3c3d ad9f 40be 5115 b43d 20b2 523b
00000260: 6ac4 853d 8141 d4bc a9e6 1a3e 4fa2 1abe
00000270: 891a b2bd eac4 ebbd 51ce cebd 54b4 233e
00000280: c12f 03be 139d 9c3d 4364 10bd 3ed4 1f3e
00000290: 964f 363d ecf6 92bd 498c 0cbe 712e 2f3e
000002a0: 3c37 9abd ec5c 4b3e 5000 fa3d 94e8 a23d
000002b0: 27e1 cabc 6556 3abe 123a 80bd 2a84 a4bb
000002c0: 80b2 073c d56b 9cbc adf9 fdbc 6835 993d
000002d0: e804 133e f6c2 eabd 6aee 013e 43cd 2c3e
000002e0: 5c14 34be a7bb e53c ae21 ecbd 9b00 74be
000002f0: e522 ffbd 7aa5 adbd 5e2d 24be b79b baba
00000300: c78d 143d 5f48 28be 3ace e23d 2a30 b33c
00000310: db0b 303e 7b8f 32be aa91 043d 81cb 1d3e
00000320: 7125 c43d 2cfb c1ba 1577 1d3d dd42 b9bd
00000330: ff34 36be 6910 a33d 1d3d b9bd e547 7b3d
00000340: 552a 193e 7824 28bd bce8 80bd 7147 bfbd
00000350: 7bfb 1b3e 3bae 53bd 92bf bd3d ee1c 11be
00000360: 26ed b13d da16 d1bd c3fc dabc e6a6 b33d
00000370: a1a6 91bd 0302 3d3c 1fd1 25be 74ef 1b3e
00000380: 023d 033e 3d06 613d 616a c43d 38dc 913c
00000390: 6817 f4ba bae2 423b 915d 33bd 5c25 0fbd
000003a0: f5f7 fdbd 2a00 993d 76cd c13d ec6f 1d3e
000003b0: 19fb a7bd 6cf5 033e b53f 8dbc 5b87 4cbe
000003c0: 4e8d 073d 3b60 eabc 59aa e0bd 9ade d0bd
000003d0: edd5 a53d 46d5 c6bd d4a8 9b3d cd75 e73d
000003e0: 6e67 cc3d 7a0c 9cbc 0033 f33d b5db fdbd
000003f0: df74 82bd 1cd2 80bd a331 f0bc de66 363d

bias f4 [10]
-0.19338539 -0.045297366 -0.053933423 -0.030644057 0.032382064 -0.04395146 0.13864781 -0.03250429
-0.100598335 0.016210062
00000000: d206 46be bb89 39bd 4be9 5cbd 3f09 fbbc
00000010: 0ea3 043d 7206 34bd b1f9 0d3e 3823 05bd
00000020: 8006 cebd f7ca 843c
